assets/gift_model.tflite (tflite, 179704 bytes, 6 tensors)

arith.constant f4 [560, 64]
000000 90 1b 73 bd d6 42 72 be d3 39 ac bd 30 7e f3 bd
       -0.059352458 -0.23658308 -0.084094666 -0.11889303
000010 76 91 0c bd 4b e4 c4 3c f0 ad ec 3d 93 f2 c3 3d
       -0.03431841 0.02403464 0.115566134 0.09567752
000020 51 a2 0a bd 64 1c 69 bd b2 47 42 be 18 21 3c bd
       -0.033846203 -0.05691184 -0.18972662 -0.04593
000030 ae d6 3d bd 34 f9 2f bd bb 4d 4c 3d 77 cb 07 3c
       -0.046347313 -0.042962268 0.049878817 0.008288256
000040 dd da 48 bc 01 03 a2 3d f3 a7 8e be 32 d9 d3 bd
       -0.012259212 0.07910729 -0.2786251 -0.10344161
000050 75 04 ce bd 6e 36 0e bd 44 41 af 3d cc 0d 15 ba
       -0.10059444 -0.034719877 0.0855737 -0.0005685955
000060 98 58 69 ba 33 ef 9e be 74 d0 ea bd 43 0f 41 bf
       -0.0008901446 -0.3104187 -0.114655405 -0.7541391
000070 9d 0c c1 bc 49 87 6a bd 0b 1d d6 bd f6 c6 97 3d
       -0.023565585 -0.057257924 -0.10454758 0.07410996
000080 f2 a0 5f bd 28 47 ff 3c b1 ae ed be 78 26 d7 be
       -0.05459685 0.03116186 -0.4642234 -0.42021537
000090 89 c4 57 be f4 bf 4b be 7e 1a 77 3d 8d 01 8c 3d
       -0.21071066 -0.19897443 0.060328 0.06836233
0000a0 1a e3 10 be 41 09 e4 bd 00 ff 49 3c 39 eb 5e bd
       -0.14149132 -0.111345775 0.012328863 -0.054423545
0000b0 8c b7 d4 bd 36 9c 8d 3d 26 a1 0c be b7 fd de 3d
       -0.10386571 0.069145605 -0.13733348 0.10888236
0000c0 54 fb 93 3d cd 0c 3d 3c 79 43 b2 bd 2a 6c 41 bf
       0.072256714 0.0115386965 -0.08704276 -0.7555567
0000d0 a0 ac 36 be 8e 72 35 be a3 ec b1 bb b3 30 89 ba
       -0.17839289 -0.1771948 -0.0054298206 -0.0010466784
0000e0 c0 50 9f be 0e f2 9f bd 2f fb 6b 3d a4 bb dc 3c
       -0.31116295 -0.0780984 0.057612594 0.026944943
0000f0 ad a4 c5 3b 95 cf 85 bc 28 15 9c bc 95 50 47 be
       0.006031594 -0.016334334 -0.019053057 -0.19464333
000100 d9 10 e1 bd 33 85 4c be a6 96 9a be bb b1 5e be
       -0.109895416 -0.19972686 -0.3019306 -0.21747486
000110 2c 17 18 be 60 82 38 be 77 e7 8a be 17 ca 5f be
       -0.1485259 -0.18018484 -0.2712972 -0.21854435
000120 8c 0a 80 be 2f 53 59 be 2c dd e2 bd 49 2a dc bd
       -0.25008047 -0.21223138 -0.110773414 -0.10750253
000130 75 0f 9d bd 7e 9c 49 be 97 7e 33 be 1a cc 78 be
       -0.07668964 -0.19688603 -0.17528759 -0.24296609
000140 db ee 73 be 90 b3 90 be cf 25 c6 be ce a2 41 be
       -0.23821585 -0.28261995 -0.3870072 -0.18909761
000150 af b0 f8 bd ef 1e 76 be 6a da 50 be 11 73 a9 bd
       -0.12143075 -0.24035238 -0.20395818 -0.082739
000160 69 69 fe bd e8 f2 29 be 32 c7 18 be c2 f7 5a be
       -0.12422449 -0.16596568 -0.14919737 -0.21383575
000170 5c 85 64 be e3 96 45 be fd a6 ac be 2f 1f 4e bd
       -0.22316498 -0.1929584 -0.33721152 -0.050322708
000180 77 56 36 be 37 9d 89 be 63 da 7e be e6 23 4b be
       -0.17806421 -0.26877758 -0.24887995 -0.19837913
000190 ee bf 25 be a3 8a 40 be 51 c8 2f be fa 6f 7c be
       -0.16186497 -0.18802886 -0.17166258 -0.2465209
0001a0 94 35 7c be 17 83 af be ae 4b e8 bd ae 1a 92 be
       -0.24629813 -0.342797 -0.1134256 -0.2853598
0001b0 ac 70 73 be 00 26 45 be ed 80 ba bd a0 4d 40 be
       -0.2377345 -0.19252777 -0.09106622 -0.18779612
0001c0 d4 e8 36 be 6f 20 3f be 60 6a 87 be ee 42 ab be
       -0.17862254 -0.18664716 -0.26448345 -0.334495
0001d0 69 1d 71 bd 6b 2a 5c be 3c 40 28 be 70 9a 1c be
       -0.05886594 -0.21500556 -0.16430753 -0.15293288
0001e0 ec bb 0f be c6 89 22 be 59 e4 48 be 80 a6 bd bd
       -0.1403653 -0.15872869 -0.19618358 -0.09260273
0001f0 b2 2f c9 bd c9 c4 41 be f8 5e b0 bd 8a 7d 81 be
       -0.0982355 -0.18922724 -0.08611864 -0.2529109
000200 aa 70 35 bd 31 64 8f 3d 85 a0 62 bd 2b d0 f0 bd
       -0.044296898 0.07001532 -0.055328865 -0.11758455
000210 4e ac 58 3d ab e3 d8 3c c8 ad f6 bd e3 83 0a be
       0.052898698 0.026475748 -0.12044865 -0.13526873
000220 85 df 36 bd 08 6d ec bd a6 9e cc bb f2 40 9c 3d
       -0.04464676 -0.115442336 -0.0062444983 0.07629575
000230 92 8a 3b 3d b5 cb 90 bd 5f 47 66 bd 27 53 e2 be
       0.045786448 -0.07070104 -0.05622041 -0.44204065
000240 57 1a ff bd 0d 34 2a be bb ed c3 3d b0 69 42 be
       -0.12456196 -0.16621418 0.09566828 -0.18985629
000250 01 04 a5 bd 84 9c 07 be 98 e2 1d be c3 85 c3 bd
       -0.08057404 -0.132433 -0.1541847 -0.095469974
000260 da 7a 06 bd 30 72 2f bf 88 23 9a 3d 3f 1b 27 3d
       -0.032832004 -0.6853361 0.07526308 0.04079747
000270 ef 71 22 be 96 d7 1a 3c d0 05 b4 bd 4c eb 8f bd
       -0.15863775 0.009450814 -0.08790171 -0.07027301
000280 db a3 07 3d f6 c9 6e bc 67 19 84 3d a8 39 8a 3d
       0.03311525 -0.014574518 0.064501576 0.06749278
000290 7a 39 89 3c ce 36 62 bd a0 bf ac bd 2e 34 af 3c
       0.01675104 -0.055228047 -0.08434987 0.021387186
0002a0 5c b0 25 bd 1b 37 0b be 3a 23 e5 bd 28 b3 15 bd
       -0.040451393 -0.1359524 -0.111883596 -0.03654781
0002b0 58 b1 7d 3c 5d 72 09 be b4 49 af be 8c bc 97 3b
       0.015484177 -0.13422532 -0.3423592 0.004630631
0002c0 44 f3 a0 bc 7d 48 49 be fd 6a a0 be 23 7d 46 3d
       -0.019647248 -0.19656558 -0.31331626 0.048459183
0002d0 92 fc c9 3b a1 eb d6 3d c1 c4 f3 3c b8 9a d8 bc
       0.006164142 0.104941614 0.029756906 -0.026440963
0002e0 1a 84 3e be 80 a1 54 be 7e 2c d5 bd bb a9 88 bd
       -0.1860508 -0.20764732 -0.10408877 -0.066729985
0002f0 e1 b9 84 be 77 aa 27 bc 7e eb 42 be ae 9b 0c be
       -0.25923064 -0.010233513 -0.19035146 -0.13731262
000300 28 53 24 bd 3c b2 38 be 7b fd bd bc e9 91 61 bc
       -0.040118366 -0.18036741 -0.023192158 -0.013767698
000310 cf 50 84 bc e7 25 a4 bd 22 c0 e0 3d 21 bc 00 be
       -0.016151814 -0.08015042 0.109741464 -0.12571765
000320 1b 40 ba bd 95 03 46 3d 3c 9a 93 be 3b 67 e5 3d
       -0.090942584 0.04834326 -0.2882861 0.1120133
000330 fe 9a f3 bc 83 9f fc bd 1f 8b 82 bd ea c8 48 3c
       -0.029736992 -0.12335112 -0.063741915 0.012254933
000340 96 7e a2 bd df 1b 7a be ce 39 7c bd 31 19 8b 3d
       -0.079343006 -0.24424694 -0.061578564 0.06791914
000350 45 f0 57 3d ea 71 fb be 94 91 b1 bd 9e 1f 69 bd
       0.052719373 -0.49110347 -0.08670345 -0.056914918
000360 b3 38 b0 bc 35 aa 37 be 28 be ad be 21 c8 64 3c
       -0.021511411 -0.17936023 -0.3393414 0.01396373
000370 e0 47 a4 bd 2a cf 5b 3c 78 ef f0 be 9f 83 88 bd
       -0.080215216 0.013416091 -0.470577 -0.0666573
000380 d2 39 b9 bd 56 24 e5 bc f6 9d 05 bf 8b bf e0 be
       -0.090442315 -0.027971428 -0.52194154 -0.43896136
000390 4c 01 87 3d 42 07 c4 bc ca 18 38 be 68 15 2d be
       0.06592044 -0.023929242 -0.17978206 -0.16902697
0003a0 44 d9 ad bd 9b de 78 be 96 ed 08 bd a2 87 6e bd
       -0.08488706 -0.24303667 -0.033429705 -0.05823482
0003b0 6a d2 f9 3d 95 bb 07 3e 4f c9 05 3d 5e 37 28 3d
       0.121983364 0.1325515 0.032662686 0.041068427
0003c0 c3 85 1d 3d 42 32 0b bf 2b 9d 56 bd 7c c1 d1 3c
       0.038457643 -0.5437356 -0.05239598 0.025604956
0003d0 83 8a 07 be fe 94 be 3d 0d 50 69 3d 7c cd f1 3b
       -0.13236432 0.09305762 0.056961108 0.007379232
0003e0 9b 65 d5 bd c8 e5 1e be 8a 3c cd bd 74 e0 1c 3d
       -0.1041977 -0.15517342 -0.100213125 0.038299993
0003f0 5c cb 81 3d a5 95 cd bd 34 65 b3 bc ed f2 2e be
       0.06337616 -0.10038308 -0.021898843 -0.17084856

arith.constant1 f4 [64, 64]
000000 79 64 e5 3d c9 25 1d bd 85 d5 66 be 7a 0a 2f 3e
       0.11200804 -0.038366113 -0.22542389 0.1709384
000010 c8 74 3e 3e 72 d0 58 bd 71 5b c1 3d 27 eb e5 bb
       0.18599236 -0.052933164 0.09441269 -0.0070165577
000020 6f e4 e2 3d 48 69 82 be 9e 01 c6 3e 99 48 ba 3e
       0.110787265 -0.25470948 0.3867311 0.36383513
000030 3d 4b 9e 3e 39 6b 74 3e d8 1f 95 be 8b a0 8d 3d
       0.30916777 0.23869027 -0.29125857 0.06915387
000040 07 12 26 3e c6 6c cf be 36 af 84 3d bc 28 15 3c
       0.16217814 -0.40512675 0.06478731 0.00910395
000050 96 39 d5 bd 85 e6 45 3d e5 9f c6 3d 6d 9c aa 3c
       -0.10411374 0.048315544 0.09698466 0.020826543
000060 f8 6c 54 be b3 4a 21 3e 0f 7a 4e be 35 4c fe 3e
       -0.20744693 0.15751152 -0.20163749 0.49667516
000070 23 a4 90 bd f9 3e b4 3e 03 ce 93 3c af 16 6e 3e
       -0.070625566 0.35204294 0.01804257 0.2325084
000080 0a 93 2c 3e 50 15 ef bd 53 51 52 be 4b 28 7e be
       0.16852966 -0.11673987 -0.20538835 -0.24820058
000090 dd 85 aa 3e 94 4a 91 3e 65 38 99 3e fd 54 91 be
       0.33305255 0.2837721 0.29925838 -0.28385153
0000a0 35 91 e5 bd 2b 5b a8 be 77 02 50 3d d1 5a b7 3d
       -0.11209337 -0.32882056 0.0507836 0.08952869
0000b0 99 50 b3 3e 1a 1d 45 3e 88 14 54 bd ef 88 b4 3e
       0.3502243 0.19249383 -0.051777393 0.35260722
0000c0 75 72 c5 be cf f6 bb 3d 34 55 00 3e af 66 8f 3d
       -0.38563886 0.091779344 0.12532502 0.07002007
0000d0 8c 16 14 be da 99 b8 3e c3 74 a8 3e e5 a9 2f be
       -0.14461726 0.3605488 0.32901582 -0.17154653
0000e0 ea 75 a4 bd 01 1f 80 3e 14 e0 19 be e8 8e 0b be
       -0.08030303 0.25023654 -0.15026885 -0.13628733
0000f0 0d e4 a5 3d 94 43 9e be dd 52 3d 3d e7 8c 9e 3e
       0.08100138 -0.30910933 0.046221603 0.30966875
000100 eb 20 b2 bd 3e 52 7c be e5 8c 0b 3e 81 3d 2b 3e
       -0.08697685 -0.24640748 0.13627966 0.1672268
000110 c7 a4 ac bd 59 89 af 3e 53 c3 f9 bd 1c c9 93 be
       -0.08429866 0.34284475 -0.12195458 -0.28864372
000120 5a 9d de bd fa 9d 03 bd ae c1 fc 3e 7e f6 d3 3e
       -0.10869856 -0.03213308 0.49366516 0.41398996
000130 95 ab 42 3e 51 b8 64 3e 62 9d 8e be 7f 1a 0a 3f
       0.19010766 0.22335936 -0.2785445 0.5394668
000140 71 a5 0f be aa 06 94 3d 22 dc 14 3e 26 fe 1e 3e
       -0.14027955 0.072278336 0.14537099 0.15526637
000150 49 2d ee 3e ce 89 90 3e eb fe 6c be fb c0 33 be
       0.46518925 0.28230137 -0.23144118 -0.17554085
000160 05 6c a3 be fa 32 8e 3e 5c 63 fd 3e 49 9a 09 3f
       -0.3191835 0.27773267 0.49489868 0.53751045
000170 82 d1 90 3e f6 3e 59 be d5 97 2b 3e 62 54 70 3e
       0.28284842 -0.21215424 0.16757138 0.2346969
000180 20 15 af 3e 7d b5 69 bc 83 58 bc be 6d 11 81 3e
       0.34195805 -0.014264462 -0.3678628 0.25208607
000190 1f e9 54 be 7e 96 15 3e 9e 18 4f 3e 94 85 98 3e
       -0.20792054 0.1460819 0.20224234 0.29789412
0001a0 17 ba d3 3e aa b4 d4 3e 8f bb 17 3e 34 40 a5 be
       0.41352913 0.41544086 0.14817642 -0.32275546
0001b0 b2 b0 87 be 60 63 88 3e 51 a8 9b ba dc 73 a4 3e
       -0.26501995 0.26638317 -0.0011875724 0.32119644
0001c0 40 a8 91 3d 88 01 8d bd 24 60 01 3e d0 c0 d3 3c
       0.07112169 -0.06885058 0.12634331 0.025848776
0001d0 07 4c a8 3d 17 e5 11 3e 98 00 7e be 55 0d 38 be
       0.08217626 0.14247547 -0.24804914 -0.17973836
0001e0 fd 2f f8 be 8a b7 d2 3c c0 c1 9c be 42 c6 d1 3d
       -0.48474112 0.025722284 -0.3061657 0.10242893
0001f0 58 5f 3d be bd f8 37 3d 7e 08 92 bb 5d 24 d5 3e
       -0.18493402 0.04491495 -0.0044565788 0.41629305
000200 77 d8 b5 be c3 93 72 3c a9 b5 81 3e 93 bb 25 bd
       -0.35516712 0.014805737 0.25333908 -0.040462088
000210 52 96 92 3d d9 d7 8b be 70 db 2b 3d 79 8e ac 3e
       0.071575776 -0.27313116 0.04195732 0.33702448
000220 e4 ef b0 3d 86 39 ef 3c 12 9a a4 be 84 4c 97 bc
       0.086395055 0.029202234 -0.32148796 -0.018469103
000230 29 4d eb bd ae 35 44 3e ac 04 9d 3e aa 2e df 3d
       -0.114893265 0.19161102 0.30667627 0.10897572
000240 c1 a9 9b 3e eb 4e ca 3e 1d 7a 69 3e 8e 6b 23 be
       0.3040295 0.39513335 0.22800489 -0.15958998
000250 f8 f1 b3 3e df bc c3 bb 25 4d 3e 3e b8 ba 2c 3f
       0.35145545 -0.005973443 0.18584116 0.6747241
000260 e7 65 21 3f 7b ae 61 be ad d8 02 be 70 b4 a8 be
       0.63046116 -0.22039215 -0.12777968 -0.32950163
000270 65 15 bf 3e 6d 59 43 bd b1 05 ae 3e 0b c2 66 bd
       0.3732101 -0.047692705 0.33988717 -0.056337398
000280 4a 71 4e bc c9 73 dd be c6 0b c4 3e 9a b7 38 3e
       -0.012600252 -0.432524 0.38290232 0.18038788
000290 02 65 ab 3d a4 c1 03 3e bb 51 42 3e 2a 49 b2 3e
       0.08368875 0.12866837 0.1897649 0.34821445
0002a0 23 cf b3 3e 56 1b 34 bd 20 41 dc be b9 63 33 be
       0.3511897 -0.043971382 -0.43018436 -0.1751851
0002b0 5f d4 2e 3e 51 7c 05 3f 36 3e 08 be c5 42 aa be
       0.170732 0.52142817 -0.13304982 -0.33254066
0002c0 fb 8c b8 3e c4 b7 e9 be 81 2e 15 3e 1a ad 13 bd
       0.3604506 -0.45648015 0.14568521 -0.036053754
0002d0 bb ad 1f be 2e 6c 91 be 8a 67 94 bd 1f e3 1d 3f
       -0.15593617 -0.28402847 -0.07246311 0.61674684
0002e0 be 5c cb 3d 84 28 4d be be 10 df bd a1 a1 34 3e
       0.099297985 -0.20034987 -0.10891865 0.17639782
0002f0 81 2a 4f bd c8 2a dc 3e 2f 24 7c 3e 80 0a 7a 3d
       -0.050577644 0.4300139 0.24623178 0.06104517
000300 cf 45 d7 3e f2 9c 29 3e 8d 5f 06 3f 91 c9 36 be
       0.42045447 0.16563776 0.5248955 -0.17850329
000310 46 66 b9 be ce 04 0b bc 84 71 09 bf f0 bd 00 3f
       -0.3621084 -0.008485032 -0.53688836 0.5028982
000320 18 5b 23 3e fc 8c 63 3e 5f 84 1a be 5a 6a 85 bb
       0.15952718 0.2222175 -0.15089558 -0.004071516
000330 d1 b8 31 be 5d 5d e5 bd 4a a0 9f 3e 1e 7a b3 bd
       -0.17355658 -0.11199448 0.31176978 -0.087635264
000340 bb e2 10 be db 87 a4 3e 0f 02 ec bd fe 9e 9a 3e
       -0.14148991 0.321349 -0.1152383 0.30199426
000350 bb eb b2 3e c5 f3 0e 3d 1c e7 eb 3e e9 4b 2a be
       0.34945473 0.034900445 0.4607476 -0.1663052
000360 b3 37 38 be f4 00 da 3e d2 6e 6c bc d3 c3 11 3e
       -0.17989998 0.42578852 -0.0144307185 0.14234857
000370 12 9a da 3e 2b 81 46 be 81 0a 74 3e 74 1f 3b 3e
       0.4269567 -0.19385211 0.23832132 0.18273717
000380 8f e1 9d 3e d8 b0 9b bd 88 8c 4b be b1 65 d1 3e
       0.3083615 -0.0760209 -0.19877827 0.40897897
000390 10 d7 b3 3c 66 98 bf be 63 59 74 bd 9b d0 23 bd
       0.021953136 -0.37420958 -0.05965556 -0.039993864
0003a0 1a 30 86 3e dd fe e2 3e 9c 35 02 3f 92 4c 2a be
       0.26208574 0.4433507 0.5086305 -0.16630772
0003b0 52 51 a0 be 5d 1f 46 be c6 b1 bb 3e 87 e6 9d bd
       -0.31312042 -0.19347902 0.36659068 -0.07709985
0003c0 03 40 8e 3e f9 11 8e 3d 99 0a 59 bd cd 31 4e 3d
       0.27783212 0.06937022 -0.052988622 0.050340462
0003d0 61 c8 dc 3b 77 8f f3 3d 4d 61 1d be 7e 49 7a 3c
       0.006737754 0.11892598 -0.15369149 0.015276311
0003e0 df f3 7c be e3 68 0b be ee 7f ad 3d 43 1a 7e 3e
       -0.24702404 -0.1361423 0.08471666 0.24814706
0003f0 8f 43 87 3e cf 72 b1 bc 8a f4 94 bd 1b ce d5 bd
       0.2641873 -0.02166119 -0.072732046 -0.10439702

arith.constant2 f4 [560]
000000 79 5c 92 bc d5 20 ba bd 3b 1e 00 bc 07 92 b7 bc
       -0.01786636 -0.090882935 -0.0078197075 -0.022408498
000010 2e e4 96 3b 2e 83 f1 ba 8a 20 24 bc fb 99 c4 bd
       0.004604838 -0.0018425935 -0.010017524 -0.09599682
000020 34 97 c0 bd e1 db 12 3c 88 ab 7a bb 02 04 43 ba
       -0.0940384 0.008963556 -0.0038249213 -0.0007439257
000030 cd 1d e6 3b e5 e0 b7 bd cb 2b c2 bd 13 bd 11 bc
       0.0070225955 -0.08978442 -0.09481009 -0.008895176
000040 80 d5 c1 bc 71 45 1e 3b 15 2e 72 bc fc be c6 bd
       -0.023661375 0.0024150277 -0.014781495 -0.09704396
000050 fa f1 4f bc 24 8f bd bd 6b 7d b1 bc 7f b7 f7 bb
       -0.012691969 -0.092558175 -0.02166625 -0.0075597162
000060 32 a5 c2 bd 44 c9 20 3c fb 5c a8 ba 86 23 16 3a
       -0.09504165 0.00981361 -0.0012845093 0.00057273393
000070 7d fc c7 bc 34 7f a8 bc e1 b5 00 3c 32 24 62 3a
       -0.024412388 -0.020568468 0.007855863 0.00086266093
000080 c0 b0 ed ba d8 a2 bd bd cb bd 53 bc b2 a4 5a 3c
       -0.0018134341 -0.092595756 -0.012923668 0.0133449305
000090 26 ce 62 3b 5c 89 9c bc db 71 93 bc 54 69 b9 bd
       0.0034607737 -0.019108467 -0.017998626 -0.09053293
0000a0 e4 3a 8b bc b5 51 b3 3b ba 64 ec bb c9 0b b8 bd
       -0.016995855 0.0054723867 -0.007214156 -0.08986623
0000b0 1b d0 ff bb a2 d9 9f 3b d4 92 b3 3b e6 35 c9 ba
       -0.0078067905 0.004878239 0.0054801498 -0.0015351146
0000c0 12 b5 fd bc ab 35 5d bc 9a bb c7 bd b1 1e 17 bc
       -0.03097013 -0.013501565 -0.09752579 -0.009223626
0000d0 c6 e8 b5 bd 0e cb 6b 3b dd 38 37 3b bc b9 bc bd
       -0.08882289 0.0035979184 0.0027957477 -0.092151135
0000e0 14 16 37 3a 6c 86 ad bc 89 d9 41 ba e1 4a cd bb
       0.0006984186 -0.021182261 -0.0007394781 -0.00626503
0000f0 0d 9b a5 bb 28 f7 74 bb 5a 16 02 bb 21 37 14 bc
       -0.005053884 -0.0037378762 -0.0019849748 -0.009046347
000100 14 1f 2d bc 68 3c 25 3b c3 80 b9 bd 0c 75 99 bc
       -0.010566492 0.0025213007 -0.090577625 -0.01873257
000110 fb 60 b6 bd b1 fe c1 bd fc ec ba bc 24 30 8e 3c
       -0.08905216 -0.09472407 -0.022818081 0.01735694
000120 2f 27 9f b8 47 50 39 bc f5 dd 8d bc 81 f4 5d 3c
       -7.589009e-05 -0.0113106435 -0.017317751 0.013547064
000130 9d db bd bd 9e 16 78 3c 33 c1 91 bb 11 cb c0 bd
       -0.092704035 0.015142111 -0.00444808 -0.09413732
000140 88 fd c8 bc c9 75 65 3a ec d3 f5 3a 8f 0b bb bd
       -0.024534956 0.0008753208 0.0018755174 -0.09133064
000150 43 d1 a9 3b 48 38 06 bc 5c e6 2a bc fe b8 c8 3b
       0.0051824166 -0.008192129 -0.0104308985 0.0061255684
000160 83 9f ad bb ac 0b 8f bc 7e 0c 20 bc ae cd 59 bc
       -0.0052985563 -0.01746162 -0.009768603 -0.013293667
000170 5a 90 0f bc 87 f4 86 3b 52 2f 07 bc 4f 34 6e bc
       -0.008762443 0.0041185054 -0.008251028 -0.0145388385
000180 2e ef c5 bd e8 db a3 3b 3d ae 45 bc 86 54 62 3b
       -0.096647605 0.00500058 -0.012065467 0.0034535243
000190 21 79 e0 3b 78 3b 1f bd e8 ef b5 bd bc 63 1c 3c
       0.006850377 -0.038875073 -0.08883649 0.009545263
0001a0 e0 63 86 bc 2f 33 42 3b f4 ea c2 bd ed 9b 53 bb
       -0.016405046 0.0029632559 -0.0951747 -0.0032288984
0001b0 c3 55 a6 39 e6 ac bd bd 39 d5 ca bb d3 f2 53 3b
       0.00031725885 -0.092614934 -0.006189969 0.003234078
0001c0 4d 36 38 3c 1f 88 92 bc b2 e1 6b 3b 11 a7 c2 bd
       0.011243415 -0.017887173 0.003599268 -0.09504522
0001d0 9e 58 b3 ba 2c f0 00 bc f2 ac c9 39 88 c4 d9 bc
       -0.0013683026 -0.007869761 0.00038466562 -0.026582971
0001e0 a2 2c 0f bd d6 c4 c1 bd 59 46 f9 3b 79 8d 2c bb
       -0.034954675 -0.094613716 0.007607263 -0.0026329441
0001f0 0f 37 9b bc 82 db 4a bc f8 ed 8e 3b d4 1a 01 bd
       -0.018947152 -0.012381436 0.004361864 -0.031519726
000200 97 38 8d bc 9c 17 7a 3c 1c cc b1 bd 19 ad cd 3b
       -0.017238898 0.015264418 -0.08681509 0.0062767384
000210 dc 5c a8 bc 0f 1f bd bd a5 63 d9 bc 87 e3 b4 3b
       -0.020552091 -0.092344396 -0.026536772 0.0055202874
000220 b4 44 6c bc cd fa 01 3b b0 a1 b4 bc b6 90 b8 bd
       -0.014420677 0.0019833327 -0.022049755 -0.090119764
000230 b8 5b c0 bd ee b0 ab 3c 0f 38 6e bb 76 50 bd bd
       -0.09392494 0.02095839 -0.0036349331 -0.09243862
000240 d7 a5 a1 bc 51 5c b4 bd dc d1 87 3c 32 1c 41 bc
       -0.019732399 -0.088066705 0.016579561 -0.011786507
000250 e4 84 17 bc 1a 47 87 bc 45 18 81 bc f0 ad c0 3b
       -0.009247992 -0.016513396 -0.015758643 0.00588011
000260 c4 fe 35 bc ec d0 2b bc 2e 80 16 bc b4 8f 75 b8
       -0.011108104 -0.010486823 -0.009185834 -5.8546386e-05
000270 5c d2 c1 bd d2 b6 bc bd ae fe b7 bc ce b5 8c ba
       -0.09463951 -0.09214558 -0.022460308 -0.0010735334
000280 5d b3 07 bd cc 0e ba ba 28 f3 ed 3b f5 4f b3 ba
       -0.03313004 -0.0014195084 0.0072616525 -0.0013680445
000290 51 50 c4 bd a4 6c d8 bb a5 b1 c4 bc 78 d6 ba bb
       -0.09585632 -0.006604748 -0.024010489 -0.005701836
0002a0 99 e9 ef 3b 30 78 10 3c 0d 26 dc bb 33 0e 38 bb
       0.007321548 0.008817717 -0.006718403 -0.0028084635
0002b0 db e1 bc bb ac 33 42 3c b1 90 16 bc f1 a6 b4 bd
       -0.0057642288 0.01185314 -0.009189771 -0.08820904
0002c0 8a d8 18 3a a5 a9 b1 bd 20 d7 53 bc 02 6e 6b bc
       0.00058306067 -0.08674935 -0.012929708 -0.01436949
0002d0 6e c9 34 bc 43 f0 92 bc 18 36 c0 bd 9e 4f cf bb
       -0.011034353 -0.017936831 -0.093853176 -0.00632663
0002e0 aa 1d b6 bd 2d cd 61 bc 65 d3 24 bc 1e ed 1e bc
       -0.08892377 -0.013781828 -0.010060166 -0.009700088
0002f0 ac 0f ec bb 68 9a 45 39 75 2c b8 3c ae 9f 30 3b
       -0.0072040167 0.00018844905 0.022482136 0.0026950645
000300 0f 39 e4 bb a3 a5 c1 bd 60 1a 3b bc 4d 89 4c bc
       -0.0069648097 -0.09455421 -0.0114198625 -0.012483907
000310 7e cf c8 3b 02 dd b3 3a a0 40 c1 3b 63 55 b0 bb
       0.0061282506 0.0013722482 0.0058975965 -0.0053812726
000320 44 51 59 bc 5a 1e 1f 3c cc ce ab 3a 0e 18 19 3c
       -0.013264004 0.009711826 0.0013107895 0.009344114
000330 47 c1 dd 3b 90 52 68 bc fa c9 93 bc 19 1b 6b ba
       0.006767425 -0.014179841 -0.018040646 -0.00089685764
000340 22 59 72 ba 41 44 0c 3b c7 dc 3e bc dd d1 9f 3b
       -0.0009244849 0.0021402987 -0.011649317 0.0048773126
000350 cb 39 ef 3c 5c 03 df 3b 5a 2e 1d ba 0a 68 79 bc
       0.029202363 0.0068058204 -0.00059959816 -0.015222559
000360 5e d4 40 3c 71 4e c4 bb 42 3f 00 ba 37 11 6f bb
       0.011769382 -0.0059907963 -0.00048922386 -0.0036478767
000370 05 42 60 bb 66 52 85 ba b2 ac 05 3c 08 ec e0 3a
       -0.0034219038 -0.0010171651 0.00815885 0.0017160187
000380 32 61 54 bc d1 ce bc bb d7 c8 05 bd c9 6d 77 3b
       -0.012962626 -0.005761959 -0.03266224 0.0037754646
000390 bf af 42 3b 0c 4e 08 bd 5b 7f b9 bb 72 27 d5 bb
       0.0029706804 -0.033277556 -0.005660934 -0.0065049464
0003a0 9c d5 38 bc 1a 72 d4 3b 5a 87 30 bb c0 de 9a ba
       -0.011281397 0.0064833285 -0.0026936145 -0.0011815652
0003b0 62 86 02 3c dd 3d 3a 3b 43 ab 40 3c 8a ce 8e bc
       0.00796661 0.002841822 0.011759582 -0.01743247
0003c0 ee 8d b2 3b 28 67 9a bc 0a f4 04 bc 8f da c0 bd
       0.0054490482 -0.018848017 -0.008114824 -0.09416687
0003d0 16 b5 ac bb df f8 90 bc 01 ed aa 3a 21 f1 c7 bc
       -0.0052706106 -0.017696796 0.0013040603 -0.024406971
0003e0 1c 69 b0 3c 8d d8 51 bc 2a a7 55 bc 61 a8 bd bd
       0.021534495 -0.012807977 -0.013040343 -0.09260631
0003f0 ff 9a 26 3b 9b bb ea ba 10 33 be bd a8 84 bd bd
       0.0025421975 -0.0017908694 -0.09287083 -0.09253818

sequential_1/dense_1_2/BiasAdd/ReadVariableOp f4 [64]
000000 6d d2 06 3d f2 5f 86 3d 0b 0e bd 3d 3e e0 43 3d
       0.03291552 0.06561269 0.09231194 0.047821276
000010 67 b4 c0 3c 85 82 ab 3c 5f 50 58 3d 6f 3e 9b 3d
       0.023523523 0.02093626 0.052811023 0.07580268
000020 3a 34 3c 3d 46 fa 62 3d c6 d9 4b 3d 79 64 31 3d
       0.045948245 0.05541446 0.04976823 0.04330871
000030 70 09 1a 3d 4f 6c 83 3d c9 c5 60 3d b8 66 8f 3d
       0.037606657 0.064171426 0.054876123 0.07002014
000040 14 aa b3 3d 51 91 95 3d 19 2b a4 3d bf f5 19 3d
       0.08772674 0.073031075 0.08016033 0.037587877
000050 3d 91 30 3b 4a bb f0 3d 6e 57 1e 3d 7c 52 3c 3d
       0.0026942038 0.117544726 0.0386576 0.0459771
000060 91 fd c1 3c 8a 0c e1 3d 13 1d 53 3d c7 93 f8 3d
       0.02368048 0.1098872 0.0515414 0.12137561
000070 39 37 e4 3c 6a 53 cc 3c c1 9e e7 3d c5 ad 8f bc
       0.027858363 0.024942119 0.11309577 -0.017538914
000080 ac 6c 48 3d 1f 01 a0 3d 7c d7 97 3d 6c 3c bb 3d
       0.048931763 0.07812714 0.07414147 0.09142384
000090 b7 5c 3b 3d 4c 4d 47 3d 41 eb 1a 3d 1b 2c 82 3d
       0.045742717 0.0486577 0.03782201 0.06356069
0000a0 4e c3 e4 3d b1 52 c4 3d 69 f1 35 3c 9c ea da 3d
       0.11170064 0.09586085 0.01110492 0.106892794
0000b0 05 46 a2 3d 83 d0 7d 3d f9 77 6d 3d 18 13 6d 3d
       0.079235114 0.06196643 0.057975743 0.057879537
0000c0 8e 32 12 3d d3 1a d1 3d 6f 2f e3 3d 4d 5d a7 3d
       0.035692744 0.102101944 0.110930316 0.081720926
0000d0 e9 2e 49 3d a1 ac 7f 3d 0e fa 7e 3b 79 01 2f 3d
       0.049117003 0.06242049 0.0038906368 0.042726014
0000e0 ad 44 96 3d 30 ee e1 3c 09 33 6d 3d db 6c 36 3d
       0.073373176 0.027579397 0.05791 0.044537406
0000f0 4c 2b 30 3d 68 7b f6 3c 1a a2 e6 3c 60 de 20 3d
       0.04301004 0.030088142 0.028153468 0.039274573

sequential_1/dense_1/BiasAdd/ReadVariableOp f4 [64]
000000 a6 93 20 3e 1a d4 88 3e b6 0d 2a 3e df 16 28 3e
       0.15681323 0.2672432 0.16606793 0.16414975
000010 c0 58 6c 3e 96 81 1b 3e 45 94 4f 3e 2e 73 1e 3e
       0.2308073 0.15186152 0.20271404 0.15473625
000020 26 15 15 3e cb e5 5c 3e 44 e4 54 3e b0 6e 43 3e
       0.14558849 0.21572034 0.20790201 0.19085193
000030 42 29 83 3e 13 90 16 3e d0 38 3b 3e 3e 12 47 3e
       0.25617415 0.14703397 0.18283391 0.19440553
000040 09 ca 4b 3e 6e 72 74 3e 70 57 12 3e 8d 02 fa 3d
       0.19901289 0.23871776 0.14291167 0.12207518
000050 ec c6 61 3e fd e8 47 3e d1 a2 08 3e bc d7 0b 3e
       0.22048539 0.19522472 0.1334336 0.13656515
000060 a3 20 84 3e 32 0e 25 3e 1f 77 53 3e 8b 72 4f 3e
       0.2580615 0.16118696 0.2065091 0.20258538
000070 04 af 32 3e 8b d6 48 3e f8 bd 1f 3e ad 8c 42 3e
       0.17449576 0.19613092 0.15599811 0.18998976
000080 7f a3 0b 3e 1b 6a 5f 3e d5 00 55 3e f1 e9 4a 3e
       0.13636588 0.2181782 0.20801099 0.19815804
000090 a1 4d 2b 3e 06 c3 73 3e 41 7f f9 3d ef 29 67 3e
       0.16728832 0.23804864 0.12182475 0.2257459
0000a0 f4 c7 4a 3e 58 76 75 3e 79 71 1c 3e a0 60 71 3e
       0.19802839 0.23970926 0.15277661 0.23572016
0000b0 1e 68 03 3e d4 8e 6d 3e a7 16 2a 3e 52 2c 23 3e
       0.12832686 0.23199016 0.16610204 0.15934876
0000c0 0a 86 65 3e 0f c4 67 3e 12 9e 17 3e 67 ad 08 3e
       0.22414413 0.22633384 0.14806393 0.13347398
0000d0 e2 9b 29 3e be 53 09 3e c2 be 30 3e 2d 61 39 3e
       0.16563371 0.13410851 0.17260268 0.18103476
0000e0 5d 60 5c 3e 8b 0d 57 3e 10 3b 37 3e 75 9b 3f 3e
       0.21521135 0.2100126 0.17893624 0.18711646
0000f0 eb ea 48 3e c3 be 37 3e 6f 9d 66 3e 26 55 6c 3e
       0.19620864 0.17943864 0.22520994 0.23079357

sequential_1/dense_1/MatMul f4 [64, 59]
000000 51 0a 3f 3e 5e b2 93 be ab b5 8c be a6 69 7d be
       0.18656279 -0.2884702 -0.27482352 -0.24747333
000010 01 a4 55 be 9b 68 71 be 03 5c 52 bd ee 74 11 be
       -0.20863344 -0.2357506 -0.05135728 -0.14204761
000020 ae 81 92 3e f8 7d 77 3e 8d 08 f2 3d d5 06 4f 3e
       0.28614563 0.24169147 0.11818037 0.2021745
000030 bf 14 07 3e ca 27 2d bd 35 fc 31 3e 55 35 14 3e
       0.13191508 -0.042274274 0.17381366 0.1447347
000040 a5 12 47 3d 21 00 a9 3e 77 64 11 3e 84 1b f3 3e
       0.048601765 0.3300791 0.1419848 0.4748193
000050 ce a9 75 3e ed 2b 29 3e 28 21 d9 bd 51 ac 4f be
       0.23990557 0.16520663 -0.10602027 -0.20280577
000060 b4 7d b4 3e bc ee 04 3f cd 9c 81 3d c9 3b 54 be
       0.35252154 0.5192678 0.063287355 -0.20725931
000070 02 13 38 3c 5a fe 05 3e 04 19 82 be 4c ed 40 be
       0.011235001 0.13085309 -0.2540971 -0.18840522
000080 a2 51 a3 3d 04 01 81 3e b7 46 c5 3e 1d fa 21 3d
       0.079745546 0.25196087 0.38530514 0.039545167
000090 62 85 bd 3e 4f 85 58 bd eb 15 55 bb 21 53 7b be
       0.37015826 -0.052861508 -0.0032514285 -0.2454343
0000a0 0f 5f d6 bd 30 03 d5 3d 82 cf f3 3d 35 bf 09 3d
       -0.1046735 0.104009986 0.11904813 0.033629615
0000b0 71 e3 89 3d 1b 43 8c be 81 fa a6 3e 4d a5 e7 3c
       0.06732834 -0.27394947 0.32612994 0.028277064
0000c0 bd 8e 83 be 2a 0b 89 3e 6e a3 c2 be c7 8e 7c be
       -0.25694838 0.2676633 -0.38015312 -0.2466384
0000d0 75 32 d8 3d 3c a8 3b be 1c ae 0c be 8e 83 f3 3e
       0.10556499 -0.18325895 -0.13738292 0.47561306
0000e0 19 b9 24 3f 3a 34 20 3e da 67 30 bd 88 28 5c be
       0.64344937 0.15644923 -0.04306779 -0.21499836
0000f0 d2 1b 82 bd c1 0a 72 3e a5 f3 af 3d 63 61 03 be
       -0.063529626 0.23636915 0.085913934 -0.12830119
000100 3f f3 6e bd 25 86 ab 3d 2b b9 9d 3d a0 1f d6 3e
       -0.058337446 0.083751954 0.077013336 0.41821003
000110 ce e5 02 3d 50 91 f6 3e ff 3f e8 3e 9d 99 2d be
       0.03195744 0.4815774 0.45361325 -0.1695313
000120 5f 17 fa 3e 22 51 cf bd 83 a0 8b 3e 4e 69 4f be
       0.48845956 -0.10122897 0.27270898 -0.20255014
000130 e8 7e be bd 03 c8 8b 3e 98 76 a5 3e 27 11 1e 3c
       -0.09301549 0.27301034 0.32317042 0.009647644
000140 4f de 86 3e 28 d8 a2 be 3c a7 24 be e2 73 f0 be
       0.26341483 -0.3180554 -0.1607942 -0.46963412
000150 34 5a d5 be 67 d2 ed 3d 3d ca d0 3e 02 3d 45 3e
       -0.41670382 0.11612397 0.40779296 0.19261554
000160 91 27 54 be 4e 24 a2 bd e1 2f 4c be b2 19 a3 3b
       -0.20718218 -0.07917081 -0.1994014 0.0049774284
000170 95 bb b1 3e 10 64 15 bf 44 32 73 3c 55 2e 1a 3e
       0.34713426 -0.5835581 0.014843527 0.15056737
000180 08 12 e6 3d 66 56 3e 3d 26 fc b8 3e dc da 11 3e
       0.11233908 0.046469115 0.36129874 0.14243644
000190 03 c3 92 3e f4 ce 40 be 3a 46 94 3e ae 97 d7 3e
       0.28664407 -0.18828946 0.2895983 0.4210791
0001a0 ef 77 07 3e 0c fe 10 be bb 95 2c bc b5 4a 92 3e
       0.13229345 -0.14159411 -0.010533745 0.28572622
0001b0 fa ca 81 3e ba 6c 37 3e b2 fc 02 3f 30 e4 91 bc
       0.2535017 0.1791257 0.5116683 -0.017809004
0001c0 58 c4 6c 3e a7 02 1b 3e fc 72 2b be 74 db 7e bd
       0.23121774 0.1513773 -0.16743082 -0.062221006
0001d0 f8 a7 6c 3e 26 a3 01 be 25 e5 31 bc ec 86 40 3e
       0.2311095 -0.12659892 -0.010857855 0.18801469
0001e0 ba 39 e0 3d 5d ee e9 3e 58 4d 40 3e 0d 22 a6 3d
       0.109485105 0.4568967 0.18779504 0.081119634
0001f0 e2 6f a7 3e e3 a5 8e 3d 2c 74 c5 3e 30 90 bd 3e
       0.32702547 0.06965234 0.38565195 0.3702407
000200 f6 21 86 3d 04 04 fe 3e 86 f5 c4 bd 17 fd 23 3e
       0.06549446 0.4961244 -0.096171424 0.16014515
000210 55 d6 56 be 0b 24 4d 3e 9c 49 ee bd b6 05 0a be
       -0.20980199 0.2003328 -0.116351336 -0.13478741
000220 ee 75 d2 3d 8d 9c f6 3e 17 9a 50 3c 53 6d d7 3e
       0.102763996 0.48166314 0.01273205 0.42075595
000230 6e 25 90 be a1 9b 5c be 2f 64 b8 3d df 61 86 3d
       -0.28153557 -0.21543743 0.090034835 0.06561636
000240 f4 da 68 3e 8a 25 e0 bd 1b 83 3f 3d 03 b8 26 3e
       0.22739774 -0.1094466 0.04675589 0.16281132
000250 00 47 d9 be 05 06 79 be 8c d5 3b be 64 fa b5 3e
       -0.4243698 -0.24318703 -0.1834318 0.35542595
000260 dd c7 71 3e 8e 5c fd 3e ec 87 8f 3e e7 ee fa 3e
       0.23611398 0.49484676 0.28033388 0.49010393
000270 f0 8a 45 3e 60 21 da 3e ee b1 b1 be 97 93 b6 bd
       0.19291282 0.42603588 -0.34706062 -0.08914869
000280 a5 b2 22 be 19 b1 86 3e 35 30 4a 3e 83 93 75 3e
       -0.1588846 0.2630699 0.19744952 0.23982053
000290 18 7f 8e bd cf a6 12 bd 04 8d 86 be 54 b2 8f be
       -0.06957835 -0.035803612 -0.2627946 -0.2806574
0002a0 f3 7a f6 3d 15 39 19 3e 35 16 94 be e3 72 49 be
       0.120351695 0.14963181 -0.28923193 -0.19672732
0002b0 68 9d 11 3e 75 ea 34 be 8f d6 0e 3e e5 3e f1 bd
       0.14220202 -0.17667563 0.13949035 -0.11779574
0002c0 c4 aa e7 3e 07 42 f7 3d 47 79 bc 3e 74 21 1b 3e
       0.4524747 0.120731406 0.36811277 0.1514948
0002d0 fb db 88 be a5 2b 80 bc 73 3d c1 bd ed a3 ce 3e
       -0.26730332 -0.015645811 -0.09435549 0.4035944
0002e0 3f db 2e be 25 4f b7 be 59 0d 98 3e a8 88 65 3e
       -0.17075823 -0.3580257 0.29697683 0.22415411
0002f0 6b de 80 be 0b 50 4b 3e 4c 97 b4 3d 5f af fd bd
       -0.2516969 0.19854753 0.0881792 -0.12386965
000300 1b 34 b7 bd f9 25 49 3e 16 3d c7 3e 35 41 fe bb
       -0.08945485 0.19643392 0.38913792 -0.007759238
000310 2f 38 a8 3e 3f 52 49 3e 83 cd 5e bc a9 45 c6 be
       0.32855365 0.1966028 -0.0135988025 -0.3872502
000320 e2 84 74 bd e1 f5 58 3e cf a0 9a 3e 72 03 4c be
       -0.05969704 0.21187545 0.30200812 -0.1992319
000330 29 06 13 3e 37 84 60 3e 86 95 90 bd 1b b8 dc 3e
       0.14357819 0.21925436 -0.07059769 0.4310921
000340 78 3e f0 3e 6d 8f 14 be bd c4 ee 3e 79 55 1e 3f
       0.4692266 -0.14507838 0.46634474 0.6184917
000350 f8 47 78 3d 8c 51 00 be 30 19 07 bf e3 44 3e 3e
       0.06061551 -0.12531108 -0.5277281 0.18580966
000360 22 fe b7 3d 51 b3 7a 3e 1a d6 ce 3e 85 5c 61 3e
       0.08984019 0.24482466 0.40397722 0.2200795
000370 f6 5a 84 bd 43 e0 f3 3d 14 2a 99 3d f4 c6 44 be
       -0.06462662 0.11908009 0.07478729 -0.1921652
000380 04 30 81 3e 3f ef 9f be dc 28 72 3e 4e 98 ef bd
       0.25231946 -0.31237218 0.23648399 -0.11698972
000390 62 ff 52 be c8 21 03 3f c7 5f 84 3e c4 89 c6 be
       -0.20605233 0.5122342 0.25854322 -0.38776982
0003a0 8b d8 d9 3e 47 e5 24 3e d2 99 14 be 24 ec a9 bd
       0.42548022 0.16103087 -0.14511803 -0.082969934
0003b0 e9 34 c4 3e 7a 5a 29 3d 00 1d f1 bd a5 cd 0c 3d
       0.38321617 0.04134605 -0.117731094 0.034375805
0003c0 26 d9 18 bd 80 df 97 3c 5e bd e1 3c e9 b2 72 3e
       -0.037316464 0.01853919 0.027556118 0.23701061
0003d0 cf 81 25 bc 93 4b e7 3b 3b 7a 42 bc 2e 93 6b 3e
       -0.01010175 0.0070585697 -0.011869962 0.23005363
0003e0 02 51 b9 3e 29 c3 36 3e 01 d1 ee 3e bc 58 99 be
       0.36194617 0.17847885 0.46643832 -0.2995051
0003f0 87 ce be 3d 9c 79 bb 3e d8 3d 39 bd 32 97 d8 3d
       0.09316736 0.36616218 -0.045224994 0.10575713
